…
[1m774/797[0m [32m━━━━━━━━━━━━━━━━━━━[0m[37m━[0m [1m0s[0m 2ms/step - accuracy: 0.9243 - loss: 0.2020
[1m797/797[0m [32m━━━━━━━━━━━━━━━━━━━━[0m[37m[0m [1m2s[0m 2ms/step - accuracy: 0.9248 - loss: 0.2017 - val_accuracy: 0.8917 - val_loss: 0.3290

Forme pour CNN : (60000, 28, 28, 1)

=== RESUME MODELE CNN ===
Model: "sequential_1"
┌─────────────────────────────────┬────────────────────────┬───────────────┐
│ Layer (type)                    │ Output Shape           │       Param # │
├─────────────────────────────────┼────────────────────────┼───────────────┤
│ conv2d (Conv2D)                 │ (None, 26, 26, 32)     │           320 │
├─────────────────────────────────┼────────────────────────┼───────────────┤
│ max_pooling2d (MaxPooling2D)    │ (None, 13, 13, 32)     │             0 │
├─────────────────────────────────┼────────────────────────┼───────────────┤
│ conv2d_1 (Conv2D)               │ (None, 11, 11, 64)     │        18,496 │
├─────────────────────────────────┼────────────────────────┼───────────────┤
│ max_pooling2d_1 (MaxPooling2D)  │ (None, 5, 5, 64)       │             0 │
├─────────────────────────────────┼────────────────────────┼───────────────┤
│ flatten_1 (Flatten)             │ (None, 1600)           │             0 │
├─────────────────────────────────┼────────────────────────┼───────────────┤
│ dense_3 (Dense)                 │ (None, 64)             │       102,464 │
├─────────────────────────────────┼────────────────────────┼───────────────┤
│ dropout (Dropout)               │ (None, 64)             │             0 │
├─────────────────────────────────┼────────────────────────┼───────────────┤
│ dense_4 (Dense)                 │ (None, 10)             │           650 │
└─────────────────────────────────┴────────────────────────┴───────────────┘
 Total params: 121,930 (476.29 KB)
 Trainable params: 121,930 (476.29 KB)
 Non-trainable params: 0 (0.00 B)
Epoch 1/10

[1m  1/797[0m [37m━━━━━━━━━━━━━━━━━━━━[0m [1m11:18[0m 853ms/step - accuracy: 0.0625 - loss: 2.3078
[1m  8/797[0m [37m━━━━━━━━━━━━━━━━━━━━[0m [1m6s[0m 8ms/step - accuracy: 0.1181 - loss: 2.2737     
…
